…
2020-12-31 08:57:03.764552: I tensorflow/stream_executor/cuda/cuda_gpu_executor.cc:982] successful NUMA node read from SysFS had negative value (-1), but there must be at least one NUMA node, so returning NUMA node zero
2020-12-31 08:57:03.765376: I tensorflow/core/common_runtime/gpu/gpu_device.cc:1402] Created TensorFlow device (/job:localhost/replica:0/task:0/device:GPU:0 with 10271 MB memory) -> physical GPU (device: 0, name: GeForce GTX 1080 Ti, pci bus id: 0000:13:00.0, compute capability: 6.1)
Model: "sequential"
_________________________________________________________________
Layer (type)                 Output Shape              Param #   
=================================================================
conv2d (Conv2D)              (None, 128, 128, 64)      1792      
_________________________________________________________________
conv2d_1 (Conv2D)            (None, 128, 128, 64)      36928     
_________________________________________________________________
batch_normalization (BatchNo (None, 128, 128, 64)      256       
_________________________________________________________________
max_pooling2d (MaxPooling2D) (None, 64, 64, 64)        0         
_________________________________________________________________
conv2d_2 (Conv2D)            (None, 64, 64, 128)       73856     
_________________________________________________________________
conv2d_3 (Conv2D)            (None, 64, 64, 128)       147584    
_________________________________________________________________
batch_normalization_1 (Batch (None, 64, 64, 128)       512       
_________________________________________________________________
max_pooling2d_1 (MaxPooling2 (None, 32, 32, 128)       0         
_________________________________________________________________
conv2d_4 (Conv2D)            (None, 32, 32, 256)       295168    
_________________________________________________________________
conv2d_5 (Conv2D)            (None, 32, 32, 256)       590080    
_________________________________________________________________
conv2d_6 (Conv2D)            (None, 32, 32, 256)       590080    
_________________________________________________________________
batch_normalization_2 (Batch (None, 32, 32, 256)       1024      
_________________________________________________________________
max_pooling2d_2 (MaxPooling2 (None, 16, 16, 256)       0         
_________________________________________________________________
conv2d_7 (Conv2D)            (None, 16, 16, 256)       590080    
_________________________________________________________________
conv2d_8 (Conv2D)            (None, 16, 16, 256)       590080    
_________________________________________________________________
conv2d_9 (Conv2D)            (None, 16, 16, 256)       590080    
_________________________________________________________________
batch_normalization_3 (Batch (None, 16, 16, 256)       1024      
_________________________________________________________________
max_pooling2d_3 (MaxPooling2 (None, 8, 8, 256)         0         
_________________________________________________________________
conv2d_10 (Conv2D)           (None, 8, 8, 512)         1180160   
_________________________________________________________________
conv2d_11 (Conv2D)           (None, 8, 8, 512)         2359808   
_________________________________________________________________
conv2d_12 (Conv2D)           (None, 8, 8, 512)         2359808   
_________________________________________________________________
batch_normalization_4 (Batch (None, 8, 8, 512)         2048      
_________________________________________________________________
max_pooling2d_4 (MaxPooling2 (None, 4, 4, 512)         0         
_________________________________________________________________
conv2d_13 (Conv2D)           (None, 4, 4, 512)         2359808   
_________________________________________________________________
conv2d_14 (Conv2D)           (None, 4, 4, 512)         2359808   
_________________________________________________________________
conv2d_15 (Conv2D)           (None, 4, 4, 512)         2359808   
_________________________________________________________________
batch_normalization_5 (Batch (None, 4, 4, 512)         2048      
_________________________________________________________________
max_pooling2d_5 (MaxPooling2 (None, 2, 2, 512)         0         
_________________________________________________________________
flatten (Flatten)            (None, 2048)              0         
_________________________________________________________________
dense (Dense)                (None, 256)               524544    
_________________________________________________________________
dropout (Dropout)            (None, 256)               0         
_________________________________________________________________
dense_1 (Dense)              (None, 11)                2827      
=================================================================
Total params: 17,019,211
Trainable params: 17,015,755
Non-trainable params: 3,456
_________________________________________________________________
Found 9866 images belonging to 11 classes.
Found 3430 images belonging to 11 classes.
WARNING:tensorflow:`period` argument is deprecated. Please use `save_freq` to specify the frequency in number of batches seen.
…
